checkpoint.ckpt (torch, 34867 bytes, 24 tensors)

encoder.layers.0.weight f4 [22, 33]
00000000: 0601 953d e3b5 8e3d b6c1 08be 7204 83bd
00000010: 345d 5fbe 5d65 39be 7bb0 53be 4edb a0bc
00000020: 3271 873d e1e9 82bd c30b f93d 56b9 523c
00000030: 01c5 553e d356 16bb 4586 193e 7eea d8bd
00000040: 4f20 09be f39e 01be b7f9 cbbd d09f 9d3c
00000050: 43d9 3a3e 53b1 fa3d f115 d33d 287e 353c
00000060: 1de2 0bbe 9fef 27be d35c 5cbe d02e c13d
00000070: 59fb ecbc fe66 57be a982 98bd 69b8 81bd
00000080: 2005 01be 8267 723d f98e 843d 2a68 e43d
00000090: c507 b8bd 39d2 0b3e 1ee9 273e c324 bb3d
000000a0: 6117 2b3e 362f 113d 5350 21be 83b1 e6bd
000000b0: 8f7d d33d c798 6cbd 6487 cebb 3878 92bd
000000c0: d9af e63c d061 1a3e 015f 203e 1ec7 9c3d
000000d0: d886 09be 307e 903d 2c60 01be 6c52 8bbc
000000e0: 9e91 d2bd 1805 2abd fd2c 4a3d 8a4a 01be
000000f0: 993c a5bd e8c5 aabd c6a2 763d 6542 1bbe
00000100: d43a d9bd 8900 e1bd fddd 9b3e f701 fcbb
00000110: b6d9 153e 2cfb a33c bc07 123e 0aaf 73bd
00000120: 02a8 693e c950 883d 947d f13c 129b 743e
00000130: 6990 5bbf cbef 273e b666 26be 08c0 433e
00000140: dc9c 08bf 1723 cabe 06fe b8bc 52dc 023e
00000150: 7a02 2bbe 19b0 103d b9f4 7c3d 9c91 31be
00000160: fde0 313f dfb4 a83e 4575 5bbd 9e0d 8d3e
00000170: 50e4 fdbe 8805 373e 102f 953b c1ae a93e
00000180: 4bd2 653e a85f 1fbf 5590 c8be d9a7 b2bc
00000190: 911c c9bc c5e8 ee3d ab13 e93d 0997 523d
000001a0: db8a 023d bc47 2abd b4a5 203d 93b2 2fbe
000001b0: 9e42 40be 367a 7bbc bc85 7f3c ca86 46bd
000001c0: 15fc 6c3b 4123 94bd 7b05 f63d f6ea 07bd
000001d0: a0d4 db3d 36f2 15bc 8b49 ee3c 8ee5 d4bc
000001e0: 2809 dfbd d58a cebd ccfe 263c dd8e 9fbd
000001f0: 6461 0bbe abb9 5fbe 7982 e63d 50b3 4abd
00000200: 9e51 843d 35f2 8ebc 50c6 fd3d 82c0 81bd
00000210: c9d3 593f 9ea6 aabe 4a9f b53e 54b0 cf3e
00000220: 1857 1fbf 444e d2bc a5bb 0b3e 8211 493f
00000230: 6cac 263e 9e3b be3d de48 61bd 6835 2abe
00000240: 8f52 c43d c2c4 48be 44c8 65be 1702 833e
00000250: 0593 863d 2fd8 87be 47b6 0eba 404c fe3d
00000260: d591 98bc 56c5 0cbd abc5 d13e 8b55 c73e
00000270: 15d0 8abd c179 d73e 4954 cd3f ad9b 023e
00000280: fde6 3e3e 1c10 1b3e 9e13 323e e3e5 223d
00000290: 63ce 2d3e dbc1 59bd 61a5 40bd 70c0 053e
000002a0: 4806 a3bd 79d0 95bc 757d c1bd 9027 b0bc
000002b0: 5157 3ebd 825a 023e 58e7 093d a156 e03d
000002c0: 4302 a53d 7691 9a3d f9c6 90bc 9ac9 3a3e
000002d0: a741 47bd dda7 eebd e51e c53b 075d 903d
000002e0: 0c51 0ebe c27d b5bd 4d3f 513d d96e 0d3e
000002f0: 2cd5 5bbc 1b2f e7bd 5067 cb3d 6477 35be
00000300: 5bec 52be 4038 d3bd baee 12bd dcbb 5bbd
00000310: de7e 19be a4a9 12be af12 843e 3f15 4fbe
00000320: 296c e8bd c450 373e 5144 53be 2d02 16be
00000330: 9bee 873c bc80 e23e 6682 683d 5a9d 323e
00000340: 4340 2a3e f3f1 0abe 7532 0a3e 6c00 25bc
00000350: 319f c7bd 73d7 963b c324 ae3d da7a 0abd
00000360: fd3c e6bd 93d2 873e 67ec 72be 4fb8 91bb
00000370: 1f22 7a3e 9203 0d3f e2c1 d0bd e8b1 7fbe
00000380: 3756 8c3e 809a 083e 632f 453e dc74 23be
00000390: 5102 0cbe 2876 eabc af0a 65bd d270 fcbd
000003a0: 048d f3bd e6ac 8ebd d088 76bc 6ac2 fe3c
000003b0: c660 923d 6dfa ae3d f95a 043e bd93 9f3d
000003c0: d0d6 e43d f15e 953b fbd1 c6bd ba18 0e3d
000003d0: 9ee3 8f3c c748 3c3d 299e 233e 4e68 253e
000003e0: 544e b2bd 5e3e 9fbd e715 0c3e 5cac ad3d
000003f0: a288 23bc 9649 5bbd a49b e93c e793 0abe
0.07275586 0.06968286 -0.13355145 -0.06397332 -0.21812898 -0.18105073 -0.2067279 -0.019635823
0.06613387 -0.06392265 0.121604465 0.01286157 0.20875932 -0.0022939935 0.14992626 -0.10591601
-0.13391231 -0.1265829 -0.09959739 0.019241244 0.18246941 0.12240853 0.10306919 0.011077441
-0.13660474 -0.16400002 -0.21519785 0.09432757 -0.028928446 -0.21035382 -0.074467964 -0.063340016
-0.12599611 0.059180744 0.06472582 0.1115268 -0.08985857 0.13654412 0.16397521 0.09137871
0.16708137 0.035445414 -0.15753298 -0.112643264 0.10326683 -0.057762887 -0.006302761 -0.07151836
0.028160023 0.15076375 0.15661241 0.07655166 -0.13430345 0.07055318 -0.12634343 -0.017007075
-0.102816805 -0.041508764 0.04935931 -0.1262609 -0.08068199 -0.08338529 0.060213827 -0.15162046
-0.10606924 -0.1098643 0.304428 -0.007690664 0.14633831 0.020017229 0.14260763 -0.059493102
0.22817996 0.066560335 0.029478826 0.2388728 -0.8576723 0.16400068 -0.16250119 0.19116223
-0.5336435 -0.39479896 -0.022582065 0.12779358 -0.16700163 0.03532419 0.061756823 -0.17340702
0.6948393 0.32950494 -0.053578634 0.27549452 -0.4958825 0.17873204 0.0045527294 0.3314114
0.22443502 -0.62255335 -0.39172617 -0.021808552 -0.024549754 0.11665491 0.113807045 0.05141357
0.031870704 -0.041572317 0.039220527 -0.17157964 -0.18775412 -0.015348962 0.01559585 -0.04846839
0.0036160995 -0.07233287 0.12012764 -0.03318306 0.107339144 -0.009151986 0.029087802 -0.025988366
-0.10890418 -0.10085074 0.010192584 -0.07790921 -0.1361137 -0.2184817 0.112553544 -0.049487412
0.0646088 -0.017449478 0.12391341 -0.06335546 0.85088784 -0.33330244 0.3547309 0.40564215
-0.6224227 -0.025672086 0.136458 0.7854234 0.16276711 0.09288715 -0.055001132 -0.16621935
0.09586059 -0.19606307 -0.22439677 0.25587532 0.065710105 -0.26532122 -0.00054440316 0.12416887
-0.018624226 -0.03436788 0.4097112 0.38932452 -0.0677797 0.42085078 1.6041347 0.12754698
0.18642803 0.15142864 0.17390296 0.03977002 0.16973262 -0.05316339 -0.047032718 0.1306169
-0.079601824 -0.018287884 -0.09447757 -0.02150324 -0.04646999 0.12729838 0.033667892 0.10954023
0.08057072 0.07547276 -0.017673003 0.18240967 -0.048646595 -0.11653111 0.006015646 0.070489936
-0.13898104 -0.08861877 0.05108576 0.13811816 -0.013417523 -0.112882815 0.09931815 -0.17721325
-0.20597975 -0.10313463 -0.0358722 -0.053645954 -0.14989802 -0.14322525 0.25795504 -0.20222948
-0.11348755 0.17901903 -0.2063153 -0.14649267 0.016593268 0.44238842 0.056764983 0.17442837
0.16626076 -0.13568859 0.1349581 -0.010070901 -0.0974716 0.0046033203 0.085031055 -0.033808567
-0.11242101 0.26527843 -0.23722993 -0.00444702 0.24427079 0.5508357 -0.1019323 -0.2497021
0.27409527 0.13340187 0.19256358 -0.15962547 -0.13672759 -0.028620794 -0.05591839 -0.12326206
-0.11892131 -0.069665715 -0.015047267 0.031098563 0.07147364 0.08543859 0.12925328 0.07791851
0.11173785 0.004558437 -0.09708019 0.03469155 0.017564591 0.045967843 0.15978302 0.1615307
-0.08706346 -0.077755675 0.1368023 0.084801406 -0.009981306 -0.053536974 0.028516598 -0.13532983

encoder.layers.0.bias f4 [22]
00000000: af43 2e3d 05fb b0bc 4770 af3c 9f02 5abe
00000010: d82b c3bc 6d0b e23d ae15 263c d4ca 253e
00000020: 1d6b 173d b446 083e 128e 283e 71c5 fd3d
00000030: 4b22 4c3e f43d 7f3d aa31 403d db5b 3b3d
00000040: 78a7 2b3e 3880 293e 44e9 2cbe b2c3 2cbe
00000050: 0f3b 1c3e 1ff4 873e
0.042545017 -0.02160407 0.021415843 -0.21290062 -0.023824617 0.110373355 0.010137005 0.16190654
0.036967386 0.13308221 0.16460446 0.123911746 0.19934957 0.062314942 0.046922363 0.045741897
0.16763103 0.16552818 -0.16885859 -0.16871527 0.15256904 0.26553437

encoder.layers.2.weight f4 [8, 22]
00000000: 5dfe 393e 5e60 9f3d 7abd 6a3e 6dc9 6bbc
00000010: 2675 bcbe 61fa a03d 6e98 a63d 7cd6 13bd
00000020: 67bc 52be d1af 82bd cc84 bd3e bf03 6ebe
00000030: 3c44 bb3e 35ff 263e d38d 37be 8df5 2c3e
00000040: 68bc b53d e4c5 ad3d 62dd 0dbd 9cd8 9d3d
00000050: 9094 603d f227 17bf c535 003e 6989 4dbe
00000060: 515a 3a3e 6b23 10be f27b f73c 70de b9bd
00000070: 72ef 023e 5497 4abe 8853 563e 5d5c 133e
00000080: 932b dcbd 404e a93c 3eaa 6b3e 705f e13d
00000090: 7f22 823e ac72 883e 48ed 073e 019a 6bbd
000000a0: 782c e8bc 1f9f 8b3d 904c d83d 7def 5fbd
000000b0: c854 923c 207f d7bc cb91 c33c cc44 07be
000000c0: 25cc 0e3f 3709 d1bd a196 9b3e c056 093e
000000d0: abeb f7bd c967 5f3d 5810 39be 0a63 d63e
000000e0: 85c9 213d 16a3 c43d ff17 5ebe 651e 15bd
000000f0: 11c4 6fbd b8e2 04be 7af9 2d3e 50f3 563d
00000100: 1741 53bd ec0d 1a3d f3b0 b4bd 96c2 663d
00000110: d8b1 a6be 3bf8 a5bd e26a e63d 1a36 e83d
00000120: e477 e43e 961a 8ebd e74f e6bd cac8 52be
00000130: 0ed3 a8be ef9f 503e e9f8 74be 7757 543d
00000140: 7ff8 b1be 2d4e 303e 7e43 8dbe 84d1 0abe
00000150: 08d0 20be bf1a ee3b c447 9abd 23b1 813e
00000160: 7b2b ddbd 59db 4e3e 0fbd 8e3e 9e85 f0bc
00000170: dc4d 223e 2c88 063e 93c3 30be 54c3 323e
00000180: bb93 13be a675 43be dd63 47be 11ca 1f3e
00000190: d6bb 19be 7928 603e b675 9a3e 6abc 603e
000001a0: 315a 00be 2ffb b83d ac1f 0b3e ba54 02be
000001b0: a122 923d 8b64 683e 516c c4bd 4328 fd3d
000001c0: cf90 98be c34b 0dbe 34ac 8cbe 8967 aebc
000001d0: 7c60 c83e 053b 313e 9cd1 1c3e 2719 423e
000001e0: c69c 3d3d 098c ec3d af1f bf3b d6a2 b23e
000001f0: 413a f03d 8387 943d fcb3 cf3e 02fa f93d
00000200: e033 c2bd fdc1 ecbd d5e4 333d 50f7 c43e
00000210: 1310 22bc 76ba 8ebd 0a92 973e caef f6bd
00000220: 0774 7cbe bb9f 27be 36ac 963e d327 5e3d
00000230: 253f f1bd 10ad 583e b8a9 223c 64d2 35be
00000240: 217f 8e3e d110 793e d51d dbbd b93c 353e
00000250: 638c 593e 682e 173e 50a9 463e 6390 81bd
00000260: 3258 2d3e f2ec 46be 14be 143d 77f8 373c
00000270: e583 1d3d f5ae c7bd 6e73 85be 55c8 073e
00000280: 8cfd b2bd 6604 55be 8142 8c3d 3441 b43d
00000290: 5bcc 97be d47d 983d 9817 b2bd 7620 65be
000002a0: c58a 8ebe 7b5c e4bd 1430 213e b36f 39be
000002b0: 153f a03d 3ad9 e63d 8466 8cbe 79d6 c4be
0.18163438 0.077820525 0.22923842 -0.014391285 -0.36808127 0.07860256 0.081345424 -0.03609322
-0.20579682 -0.063811906 0.37015378 -0.23243617 0.36575496 0.16308291 -0.17925195 0.16890545
0.08873826 0.0848501 -0.034634955 0.077073306 0.05482918 -0.59045327 0.12520511 -0.20071949
0.18198515 -0.14076011 0.030210469 -0.0907563 0.12786654 -0.1978429 0.20930302 0.14390703
-0.107504986 0.020667195 0.23014161 0.110045314 0.25416943 0.26649988 0.1327411 -0.057519916
-0.028341517 0.06817459 0.10561478 -0.054671753 0.017862692 -0.026305735 0.02387323 -0.13209838
0.5578025 -0.10206836 0.30388358 0.13411999 -0.12105497 0.054542337 -0.18072641 0.41872436
0.039498825 0.09601419 -0.21688841 -0.03640594 -0.058536593 -0.12977111 0.16989699 0.052478135
-0.051575746 0.037610933 -0.08822813 0.056337915 -0.3255756 -0.08103987 0.11250855 0.11338444
0.4462272 -0.069386646 -0.11245709 -0.20584407 -0.32973522 0.2037351 -0.23923077 0.051841225
-0.347599 0.17217322 -0.27590555 -0.13556486 -0.15704358 0.007266372 -0.075332195 0.25330457
-0.10799309 0.20200862 0.27878615 -0.029360589 0.15850013 0.13137883 -0.17262106 0.17457324
-0.14411823 -0.19087848 -0.19471689 0.15604426 -0.1501306 0.21890439 0.3016793 0.21946874
-0.12534405 0.090322845 0.135863 -0.12727633 0.07135511 0.22694604 -0.09590972 0.12361195
-0.2979798 -0.13798432 -0.2747513 -0.021289604 0.39136112 0.1730767 0.15314335 0.18954907
0.04629209 0.11550147 0.0058326344 0.3488986 0.11729861 0.07252409 0.40567005 0.12205888
-0.094825506 -0.11560438 0.043919403 0.38469934 -0.009891528 -0.06969158 0.29603606 -0.12057455
-0.24653636 -0.16369526 0.29428262 0.054237198 -0.11779622 0.21159768 0.009928159 -0.17756039
0.27831367 0.24322821 -0.106990494 0.17698945 0.2124496 0.14763796 0.19400525 -0.06326368
0.16928175 -0.19426325 0.036314085 0.011228672 0.038455863 -0.09750167 -0.26064628 0.13260014
-0.087397665 -0.20802459 0.06848622 0.08801499 -0.29648098 0.07445875 -0.086959064 -0.22375664
-0.27840248 -0.11150452 0.15740997 -0.18109016 0.07824532 0.112719014 -0.27421963 -0.3844488

encoder.layers.2.bias f4 [8]
00000000: 81c1 883e d7f9 323e 91b8 223e e34e 9e3b
00000010: 7c53 6f3e af33 cc3d 5504 fc3d 2c04 09bd
0.26710132 0.17478119 0.15890719 0.0048311814 0.2337169 0.09970795 0.12305514 -0.033451244

decoder.layers.0.weight f4 [22, 8]
00000000: 3aa0 983d 9d37 db3e 31c5 b73e e9d2 6c3e
00000010: ef42 0bbe 9d4d b7be 8b3a cc3e 7945 af3d
00000020: fe5e 17be 197e 6d3e 3d13 013f f08b b83e
00000030: 9eea e7be f138 073f dbb6 8c3e 7ebc 023e
00000040: 5b9d 02be e38e 2bbd 7ea3 7b3e 350a cabc
00000050: 3c8a 47be c057 52be 39f6 25be a07d 8a3e
00000060: d97d e83e 1375 1abe 0d72 cbbd 2aa4 f1be
00000070: a8ac 7a3e 026b 14bd 2c5d f03e 7097 49be
00000080: a97b eb3e 2cda 89bd 9a0d 93bd e4ce f33c
00000090: 51a4 043e 3b24 933e 0901 aa3e 47de 2dbe
000000a0: 34f3 44be bbc5 483e af96 a9be 6a07 8c3e
000000b0: ba50 8abe dcaf 103e 9dae 01be 8a8d 253e
000000c0: 1091 b0bd 5ab8 db3d b004 b73d afeb 3bbe
000000d0: 27c0 173d 9a2e 85bd 294f fc3d fb29 ecbe
000000e0: bb84 a93e ecbe eb3e 97b4 71be 2d77 8cbe
000000f0: 5e17 d8bc 63a0 83bd f5c9 9f3d bbb7 edbd
00000100: 0e4f 22bc d02c 68be 6a2e 32be 9f1e ed3e
00000110: 6ddb ea3e 8cb5 183b 3979 bf3e 699e 5ebd
00000120: c2ad 5bbe 5351 6d3e f3ea b53e db69 653e
00000130: daaf ea3e ffff 5f3e 65e0 843d 8254 93be
00000140: c5f7 30bc 19dd 893e 5633 3c3e 517d 103f
00000150: e2a9 01be 0b04 133e 997d c03e 7533 37be
00000160: c48a d4be c4a6 cc3e cf55 663e 76bf c13e
00000170: 259d d6bd 3708 b93e 9885 18be b7ae ebbe
00000180: 3255 a3be 805a 783c dd0c 7ebe 7658 a0be
00000190: 47ad 5f3d 08ba 15bc 1834 e5bd c69f 9d3d
000001a0: d7f3 eb3e aea2 57be 55af 2c3f 49d6 2d3f
000001b0: d148 88be 69bb ea3e 2f1e b83e c64b 373d
000001c0: 5738 93be 14ac 633d 9dc7 c23d 691d 8ebe
000001d0: f58d b6be bd91 9dbd 4e5f f23d 7000 a9bd
000001e0: 3cff 3d3e 2abe 39be 7b6f 313d e0d3 95be
000001f0: 2d3e 983e a0f2 843e c109 da3e da4d 8bbe
00000200: 1b75 df3d 6d79 70be 92f2 8bbe 6807 28bc
00000210: ba35 7d3e 1d21 5e3d 816f 4ebe 7751 ac3e
00000220: 749a a6bc 8c0c 763e 5799 6fbe 059d b03e
00000230: 07a3 23be a941 2d3f 993b 2b3e 80f4 323e
00000240: 2b6b a63c 078f 853e b04d 96ba 80b2 d7be
00000250: 01fe 11be 3fd3 ca3a e389 a03e 0621 dabd
00000260: 52d3 913e eba8 823c 7349 6ebe 1d83 16be
00000270: 192b 1b3d 5602 22be 9843 e43e da2a 9dbe
00000280: 5216 d13d a81a b33e 45db cbbe 3353 bf3e
00000290: 73c1 ea3e a2c1 9b3a 203e 4e3e 04ee f0bd
000002a0: 93cd 923d 61bb 1bbe a295 a93e b683 a83e
000002b0: 4fa0 dc3e 3248 633e 278e 91be 4f18 d5be
0.07452436 0.42815867 0.35892633 0.23127331 -0.13599752 -0.35801402 0.39888415 0.08558173
-0.1478233 0.23192634 0.5041998 0.36044264 -0.45296186 0.5282126 0.27483258 0.12767217
-0.12755339 -0.041884314 0.24574086 -0.02466307 -0.19486326 -0.20541286 -0.16207208 0.2704897
0.45408514 -0.15083723 -0.09933863 -0.4719556 0.24479926 -0.036234863 0.46946084 -0.19686675
0.45992783 -0.06731066 -0.07180329 0.02976174 0.12953307 0.2873858 0.33203915 -0.16979323
-0.192334 0.19606678 -0.33122775 0.27349406 -0.27014714 0.14129585 -0.12664266 0.16167274
-0.086214185 0.10728522 0.08936441 -0.18351625 0.037048485 -0.06503029 0.12319786 -0.4612578
0.33109078 0.460441 -0.23604046 -0.27434674 -0.02637833 -0.06427076 0.07802192 -0.116073094
-0.009906543 -0.22673345 -0.17400518 0.46312425 0.45870534 0.002330157 0.37397173 -0.05435029
-0.21453002 0.23175554 0.35530815 0.22403662 0.4583729 0.21874999 0.06488112 -0.28775412
-0.01080126 0.26926497 0.18378958 0.5644122 -0.12662461 0.14357011 0.37595823 -0.17890723
-0.4151212 0.39970982 0.22493671 0.37841386 -0.10479192 0.3613908 -0.14894712 -0.46031734
-0.31900936 0.015158296 -0.24809594 -0.3131749 0.05460861 -0.009138592 -0.11191577 0.0769649
0.46084473 -0.21058151 0.67455035 0.679051 -0.26618055 0.45846108 0.35960528 0.044749998
-0.2875392 0.05558403 0.095107295 -0.27756813 -0.3565518 -0.07693813 0.11834584 -0.082520366
0.18554395 -0.18138948 0.043319207 -0.2926321 0.29734936 0.25966358 0.42585567 -0.27207834
0.10911008 -0.2348382 -0.27333504 -0.010255672 0.24727526 0.054230798 -0.20159723 0.33655903
-0.02033732 0.24028224 -0.23398338 0.34494796 -0.15980159 0.67678314 0.16721953 0.17476082
0.020314774 0.26085684 -0.0011467244 -0.42128372 -0.14257051 0.0015474333 0.313552 -0.1065083
0.28481537 0.015949687 -0.23270206 -0.14698453 0.037882898 -0.15821204 0.4458282 -0.30696756
0.102093354 0.34981275 -0.39815727 0.37368163 0.45850715 0.0011883269 0.20140886 -0.11764148
0.071681164 -0.15208198 0.33121973 0.32912987 0.43091056 0.22195509 -0.28428766 -0.41620108

decoder.layers.0.bias f4 [22]
00000000: 3956 253e 1163 5c3e 3408 913e 7d84 87be
00000010: 24ca ea3d 71ae e8bd e364 45bd 50fe 853e
00000020: 8a7d de3c 6b4d a63d 2724 b83d ee2c 1ebe
00000030: fd7f 86be 1f4a 1d3f 61b7 883d 0f29 353c
00000040: 5294 8a3e 8e3d e43e 8901 84be 43d1 46be
00000050: ac69 70bd ad67 14bc
0.16146173 0.21522166 0.2832657 -0.26468268 0.114643365 -0.11361397 -0.048191916 0.26170588
0.027159471 0.08120235 0.089912705 -0.15446827 -0.26269522 0.61441225 0.06675602 0.011057152
0.27066284 0.44578212 -0.2578242 -0.19415765 -0.058694527 -0.009057921

decoder.layers.2.weight f4 [33, 22]
00000000: 92e6 f93e b69b 42bc 1643 863d d20c bf3c
00000010: 399f 9dbd 141e 523e 2762 4d3c adfb bbbd
00000020: 7d3f 653d 7ffa b03c e067 533e 0a6d 40be
00000030: ac5c a03d 12ad 973e 8651 debc 4e5c 22be
00000040: 452a d43d fca0 07bf ec70 753c 8211 0b3e
00000050: c845 92bc e7e1 4f3e 22d0 3dbd b9b4 eb3c
00000060: ef2c 33bd e4cd de3d 8927 4d3d cff8 733e
00000070: 18ed 03be cc78 6cbd 07f0 84be aec4 823d
00000080: 0420 7a3d 95f6 333c ee41 883d 48a9 b2bc
00000090: 1449 7a3d 51a6 08be a818 563e fef4 2dbd
000000a0: 1e4b a6bc 4615 e13b 1c7d 2e3e 9509 8a3c
000000b0: d2e6 4abd 9b6d 1fbd a27f 82bd e53f e63d
000000c0: 69bf ad3d 8be6 6f3d cc7c 18bd 2c5e 29bd
000000d0: 3cf6 3ebe d180 f23d 8b9e 003e a83f d6bd
000000e0: 9e9d a63d bb9d 01bd d600 8d3d e8f6 fcbc
000000f0: 1ac7 1c3c 2cb2 9b3c 7177 39be 2e0f 44bc
00000100: e9c9 a6bc c207 153d 516a 853d 3ba1 033d
00000110: 5cf3 f9bd 51a8 933d 45d2 71bd 7006 4b3e
00000120: d089 e2bd 2dc6 a5bd b573 44bb 2334 5abd
00000130: d7a7 21be 6fbe 94bc b440 ee3d 53dc 163d
00000140: 2f8d d63d c3c3 fd3d 14a7 bdbc a066 61bb
00000150: 5b03 073e f985 14be d4fd cc3d 74d0 fd3d
00000160: 2508 e6bd 6828 e03d e073 03be e327 e5bc
00000170: ae3d b13d 14fe 03be 8d86 3a3d 323d 8abd
00000180: 9bc4 cbbc 3782 06bd a320 09be 3b45 55bd
00000190: 5ac7 ffbd 85bb 9c3d f3e3 3ebd 621a 9abb
000001a0: d7df 533e 252d 0abe 2680 29bd 2ab0 873d
000001b0: 03ae 063e 4997 833d 9bc2 7e3c 4aaa 9d3d
000001c0: a379 953d d974 e9bd 5882 be3d 7077 1f3e
000001d0: ffbe ed3d 2ebc 3a3d 7be6 b8bd 3f68 03bd
000001e0: 8812 67bd 297c 643d 2827 e0bd 33c5 47bc
000001f0: 9e56 89bd d91b 143d 7761 bebd b6b8 83bd
00000200: 3560 5bbe ad9f 823d 5dcb d83d fb56 f4bd
00000210: e2e3 433e bbdf ccbd 38f8 d23c d033 57bd
00000220: c535 e83d 999e 9f3d 3f3d 54be ba37 6dbd
00000230: 54de 8f3d 8102 c43d 2e55 23be fd00 0b3e
00000240: 35fa 043d 974b f8bc fdd3 26bc 88c9 fe3d
00000250: 6cc6 cf3d 9ed6 523d 287a 4c3d d771 8bbc
00000260: 2724 0abe dfe2 9ebd b2bf 5b3d 2b5b 343d
00000270: 238e 563e 09fd c03d ff96 0b3e 0411 fe3d
00000280: afdc 2e3e 2e84 acbd ae25 c63d b310 d03d
00000290: 2634 c2bc 319e eabd f912 a4bd e342 adbd
000002a0: 202a a33d 51d8 91bd c568 1dbe 2823 a23d
000002b0: 79cc e2bd 7088 84bd b388 1bbe 24cd 0bbd
000002c0: b723 b73d 3468 8a3d 2f1a 123e 7b0f b23d
000002d0: 9da1 f9bd 7781 f7bd 2ffb ebbd 41dd c93d
000002e0: 041b 04be 9f1d 2f3e 4bb4 8d3d 0e0f 0bbd
000002f0: 1b8e b9bd 2408 0fbe 65e5 8bbc 50a9 20be
00000300: 53c8 523d 0dc7 143e aa00 8dbd 8f51 f53d
00000310: e8a2 34bd f3da 58bc 70a6 a2bd 12be 293e
00000320: 858c babd 8696 fdbd 4def 5abd 2ff9 c53d
00000330: bf51 123e 75d8 8e3d 832a 2e3e 2673 373d
00000340: 7ccf 52be 3fa6 893c 04bd 073e 9dcb ca3d
00000350: c83e debd faa0 d7bd 7887 0fbe b789 01be
00000360: d6a6 cd3d d55e cd3d 1ae5 cb3d 33fc 1fbe
00000370: 4e13 3a3d 2afd 86bd 247f ffbd bf12 eebd
00000380: ceca 093e 1ce8 613d e211 8e3d c886 8dbd
00000390: 3c84 79bd d36e 2bbe b4f5 07be 02ee 8d3c
000003a0: d57b b23d 00dc 983d 525b 8ebd 5a31 6b3d
000003b0: 19a9 13be 4a1b ffba b240 733c 06e4 4dbc
000003c0: 3420 cf3d 951b 273e c130 60be 70fc ab3c
000003d0: 982a 02be f3d8 013e 0e8a e03d 5f70 e0bd
000003e0: f015 a63d df3e 1abe 71e8 123e 3f28 7e3d
000003f0: ddcf 97bd 6354 5dbe 1160 da3b 627e e63d
0.48808724 -0.011877945 0.065557644 0.023321543 -0.07696385 0.20519286 0.012535608 -0.09178863
0.05596875 0.02160382 0.20645094 -0.18791595 0.07830176 0.2962423 -0.027138483 -0.15855524
0.10359625 -0.5298002 0.014980536 0.13580897 -0.01785554 0.20301019 -0.04634107 0.028772699
-0.043744024 0.10879114 0.05008653 0.23825382 -0.12883413 -0.05773239 -0.25964376 0.0638517
0.06106569 0.010984083 0.066532 -0.021809235 0.06110485 -0.13344695 0.20907843 -0.04246997
-0.02029949 0.006868991 0.17039913 0.016850272 -0.049536534 -0.038922887 -0.06372 0.11242656
0.08483774 0.058569472 -0.03722839 -0.041349575 -0.18648618 0.11840976 0.1256048 -0.1046136
0.08135532 -0.031644564 0.06884925 -0.030879453 0.009568954 0.019005857 -0.1811197 -0.01196651
-0.02035995 0.03638435 0.06514419 0.032136183 -0.1220462 0.07209838 -0.05903842 0.19826674
-0.11061442 -0.0809444 -0.0029976193 -0.053272378 -0.15786682 -0.018157212 0.11633435 0.03683121
0.104761474 0.12390854 -0.023150958 -0.0034393445 0.13184874 -0.14504232 0.100093514 0.12393275
-0.11232022 0.10945207 -0.12837172 -0.027973121 0.086543426 -0.12889892 0.045538474 -0.06749953
-0.024874022 -0.032839026 -0.13391356 -0.052067976 -0.12489195 0.07652954 -0.046604108 -0.004702852
0.20690857 -0.13493784 -0.041381977 0.066253975 0.13152318 0.0642534 0.015549327 0.07698496
0.07298591 -0.1139924 0.09302205 0.15572906 0.11608695 0.04558962 -0.09028336 -0.03208184
-0.056414157 0.05578247 -0.109449685 -0.012193012 -0.06705974 0.03615937 -0.09295934 -0.06431715
-0.21423419 0.06378112 0.105856635 -0.11930653 0.19129899 -0.10003611 0.025753126 -0.052539647
0.11338381 0.07793922 -0.20726489 -0.057914473 0.070248276 0.0957079 -0.15950462 0.13574596
0.03246518 -0.030309482 -0.010182378 0.12440783 0.10145268 0.051474206 0.049921185 -0.017022057
-0.13490354 -0.07758116 0.05364961 0.044032257 0.20952658 0.094232626 0.13631819 0.12405589
0.17076372 -0.08423649 0.096751556 0.10159435 -0.023706507 -0.11455954 -0.08011431 -0.08460023
0.07967019 -0.07121337 -0.15371998 0.07916862 -0.11074156 -0.06471336 -0.15188865 -0.034131184
0.08942359 0.067581564 0.14267801 0.08694359 -0.121890284 -0.1208524 -0.11522519 0.09856654
-0.1290093 0.17101143 0.06919154 -0.033949904 -0.090603076 -0.13967949 -0.017077157 -0.15689588
0.051460575 0.14529057 -0.06884892 0.11978447 -0.044100672 -0.013235795 -0.07941902 0.16576412
-0.09108833 -0.12382226 -0.05345087 0.096666686 0.14288996 0.0697488 0.17008404 0.04478755
-0.20586962 0.016802905 0.13255697 0.099021174 -0.10851818 -0.10528751 -0.14016521 -0.1265019
0.10041587 0.100278534 0.09955807 -0.1562355 0.045428567 -0.06591256 -0.12475422 -0.11624669
0.1345627 0.055152997 0.069370046 -0.06910473 -0.060917124 -0.16741495 -0.13277322 0.017325405
0.08715025 0.07463837 -0.06951012 0.057420112 -0.14419974 -0.0019463089 0.0148469675 -0.012566572
0.10113564 0.16319115 -0.21893598 0.020994395 -0.1271156 0.12680416 0.10963832 -0.10958933
0.08109653 -0.15063046 0.14346482 0.0620501 -0.07412694 -0.21614222 0.006664284 0.11254574

decoder.layers.2.bias f4 [33]
00000000: e437 693d fcab 17be a1d5 b63d 23df 8d3e
00000010: d1e8 593e a251 93bc a0ce 92be b94a 17be
00000020: 2dd3 c9bc e80f a8bd 596b 1abe bf52 84bc
00000030: 8283 5a3e 9509 403d b0df a3be bda1 363e
00000040: f1de 10be e2d2 1b3e 481e 7d3e e2d4 6cbd
00000050: b0b4 c2bd 32d1 36bd bcad 4cbe 6be2 7ebd
00000060: 0344 54be 6ab0 cc3d 9378 1e3e 9ae0 35be
00000070: 7201 743e bdbd 333d da9c 383b f244 f7bd
00000080: f91f b73c
0.056938067 -0.148117 0.08927465 0.27709302 0.21280219 -0.017983261 -0.28673267 -0.14774598
-0.02463683 -0.08206159 -0.15080012 -0.016152738 0.21339229 0.046884138 -0.32006598 0.17835136
-0.14147545 0.15217164 0.24718583 -0.05782021 -0.0950712 -0.044633098 -0.1998815 -0.062227648
-0.2072907 0.09994586 0.15475683 -0.1776146 0.23828676 0.04388212 0.0028169663 -0.12073697
0.022354113

exp_avg f4 [22, 33]
00000000: 0400 0000 0400 0000 0400 0000 0400 0000
00000010: 0400 0000 0400 0000 0400 0000 0400 0000
00000020: 0400 0000 0400 0000 0400 0080 0400 0000
00000030: 0400 0080 0400 0000 0400 0080 0400 0000
00000040: 0400 0000 0400 0000 0400 0080 0400 0000
00000050: 0400 0080 0400 0080 0400 0000 0400 0000
00000060: 0400 0000 0400 0000 0400 0000 0400 0000
00000070: 0400 0000 0400 0000 0400 0080 0400 0000
00000080: 0400 0080 0000 0000 0000 0000 0000 0000
00000090: 0000 0000 0000 0000 0000 0000 0000 0000
000000a0: 0000 0000 0000 0000 0000 0000 0000 0000
000000b0: 0000 0000 0000 0000 0000 0000 0000 0000
000000c0: 0000 0000 0000 0000 0000 0000 0000 0000
000000d0: 0000 0000 0000 0000 0000 0000 0000 0000
000000e0: 0000 0000 0000 0000 0000 0000 0000 0000
000000f0: 0000 0000 0000 0000 0000 0000 0000 0000
00000100: 0000 0000 0000 0000 c932 2f3e 5219 033b
00000110: 0d3a c838 ec44 8b3a 2741 123a 4a2a 2839
00000120: 1728 c8b9 5988 4939 f544 613c c71a 1f3c
00000130: 7100 633a 025a 8a3c 36a5 c8ba 0fe6 0441
00000140: cfac ab3a 4278 1c3a 183d bd3a 633f f63a
00000150: bac3 48bb eb95 9738 20a9 8ebb 22da 9ebb
00000160: 9f12 f836 a218 a536 9627 233b 7a0b 2f40
00000170: e726 f13c 9dd9 123c 1a21 1241 270e ad3a
00000180: dde8 b5b9 1168 8fb9 2ca6 aeb8 0400 0000
00000190: 0400 0000 0400 0000 0400 0000 0400 0000
000001a0: 0400 0000 0400 0000 0400 0000 0400 0000
000001b0: 0400 0000 0400 0000 0400 0000 0400 0080
000001c0: 0400 0000 0400 0080 0400 0000 0400 0000
000001d0: 0400 0000 0400 0080 0400 0000 0400 0080
000001e0: 0400 0080 0400 0000 0400 0000 0400 0000
000001f0: 0400 0000 0400 0000 0400 0000 0400 0000
00000200: 0400 0000 0400 0080 0400 0000 0400 0080
00000210: 0378 a73d 12ee 0f3a 108b 25b7 a6d9 8739
00000220: d3dc a3b6 788d eab8 f001 a0b8 0170 a438
00000230: 215b 6ebb 2138 a03b c294 b53a f7cc e83a
00000240: 1856 9d38 e546 583f 939f 45ba 9312 e839
00000250: 33e4 7439 a14c 98b9 3ef3 e8b9 479a 50b9
00000260: b20c ae37 9396 0db9 3def 9537 3cba 0f37
00000270: 2cd9 c237 9ff9 613e 1b3e 90ba 80c4 bbba
00000280: 4427 653e c353 d439 af82 223a b5b7 58ba
00000290: a7cc 27ba 0400 0000 0400 0000 0400 0000
000002a0: 0400 0000 0400 0000 0400 0000 0400 0000
000002b0: 0000 0000 0400 0000 0400 0000 0400 0080
000002c0: 0400 0000 0400 0080 0400 0000 0400 0080
000002d0: 0400 0000 0400 0000 0400 0000 0400 0080
000002e0: 0400 0000 0400 0080 0400 0080 0400 0000
000002f0: 0400 0000 0400 0000 0400 0000 0400 0000
00000300: 0400 0000 0400 0000 0400 0000 0400 0080
00000310: 0400 0000 0400 0080 63c9 65be ee56 4dbb
00000320: 85a7 3f38 852b 09ba ecf1 59ba dc69 d5b8
00000330: e018 9c39 ff4c edb8 1a06 20bc 93e2 18bc
00000340: 958a a7bb 2355 97bc 2ca0 0e3b 5162 21c1
00000350: e86b 15ba dca8 0ebb 18b8 c1ba 69b6 5ebb
00000360: 288f 9c3b 6f00 b239 901e 843b 374e b03b
00000370: a5a4 4538 f2ae b436 eda8 86bb dc42 5ec0
00000380: 9e9d e3bc 771b efbb fca6 1bc1 7149 2bbb
00000390: 51dc c1b9 5c00 0b3a a8e2 873b 0000 0000
000003a0: 0000 0000 0000 0000 0000 0000 0000 0000
000003b0: 0000 0000 0000 0000 0000 0000 0000 0000
000003c0: 0000 0000 0000 0000 0000 0000 0000 0000
000003d0: 0000 0000 0000 0000 0000 0000 0000 0000
000003e0: 0000 0000 0000 0000 0000 0000 0000 0000
000003f0: 0000 0000 0000 0000 0000 0000 0000 0000
6e-45 6e-45 6e-45 6e-45 6e-45 6e-45 6e-45 6e-45
6e-45 6e-45 -6e-45 6e-45 -6e-45 6e-45 -6e-45 6e-45
6e-45 6e-45 -6e-45 6e-45 -6e-45 -6e-45 6e-45 6e-45
6e-45 6e-45 6e-45 6e-45 6e-45 6e-45 -6e-45 6e-45
-6e-45 0.0 0.0 0.0 0.0 0.0 0.0 0.0
0.0 0.0 0.0 0.0 0.0 0.0 0.0 0.0
0.0 0.0 0.0 0.0 0.0 0.0 0.0 0.0
0.0 0.0 0.0 0.0 0.0 0.0 0.0 0.0
0.0 0.0 0.17109217 0.0020004106 9.547556e-05 0.0010625399 0.00055791665 0.00016037482
-0.00038176842 0.00019219647 0.013749351 0.009710974 0.00086594286 0.016888622 -0.0015308026 8.306167
0.0013097766 0.00059688475 0.0014437763 0.0018787201 -0.003063424 7.2281655e-05 -0.0043536574 -0.004847781
7.3931437e-06 4.920251e-06 0.0024895421 2.7350755 0.029437495 0.008963016 9.133081 0.001320307
-0.00034696507 -0.0002735262 -8.3279185e-05 6e-45 6e-45 6e-45 6e-45 6e-45
6e-45 6e-45 6e-45 6e-45 6e-45 6e-45 6e-45 -6e-45
6e-45 -6e-45 6e-45 6e-45 6e-45 -6e-45 6e-45 -6e-45
-6e-45 6e-45 6e-45 6e-45 6e-45 6e-45 6e-45 6e-45
6e-45 -6e-45 6e-45 -6e-45 0.08177187 0.00054904923 -9.867144e-06 0.00025911367
-4.883486e-06 -0.0001118434 -7.6297554e-05 7.840992e-05 -0.0036370235 0.0048895036 0.0013853537 0.001776128
7.5023796e-05 0.84483176 -0.0007538732 0.00044264327 0.00023354664 -0.00029048792 -0.00044431718 -0.00019893899
2.0748328e-05 -0.00013502901 1.7873588e-05 8.566825e-06 2.322773e-05 0.22067879 -0.0011004837 -0.0014325529
0.2237826 0.00040498198 0.0006199283 -0.00082671206 -0.000640104 6e-45 6e-45 6e-45
6e-45 6e-45 6e-45 6e-45 0.0 6e-45 6e-45 -6e-45
6e-45 -6e-45 6e-45 -6e-45 6e-45 6e-45 6e-45 -6e-45
6e-45 -6e-45 -6e-45 6e-45 6e-45 6e-45 6e-45 6e-45
6e-45 6e-45 6e-45 -6e-45 6e-45 -6e-45 -0.22440104 -0.0031332332
4.5693963e-05 -0.000523262 -0.0008313942 -0.00010176349 0.00029773172 -0.00011315382 -0.00976708 -0.009331363
-0.005112956 -0.018473214 0.002176295 -10.086503 -0.0005699978 -0.0021768128 -0.0014779596 -0.0033983237
0.0047778077 0.0003395113 0.0040319636 0.0053804177 4.7121797e-05 5.3847843e-06 -0.004109493 -3.4728308
-0.027785119 -0.0072969752 -9.728268 -0.0026136304 -0.00036975977 0.0005302483 0.0041468926 0.0
0.0 0.0 0.0 0.0 0.0 0.0 0.0 0.0
0.0 0.0 0.0 0.0 0.0 0.0 0.0 0.0
0.0 0.0 0.0 0.0 0.0 0.0 0.0 0.0

exp_avg_sq f4 [22, 33]
00000000: 1979 783b 88b0 af34 42a3 272d 51ae 1533
00000010: 2a09 e631 f519 3230 bf85 ac2f c55b 812e
00000020: a1e9 1a37 ac31 e036 dd69 bf32 7a78 8636
00000030: c1aa ed34 f50d 9e3f 7982 8233 fbb1 2f33
00000040: b95c 2533 3193 8334 0ea5 7235 439c 5230
00000050: f3ae a935 120e a935 30eb 8e2b 0779 942d
00000060: bf4b 2e34 4cb6 e83d 7cd8 9c38 b007 b736
00000070: 3722 ac40 6705 5832 91d8 c332 6083 ad31
00000080: 1389 4732 0000 0000 0000 0000 0000 0000
00000090: 0000 0000 0000 0000 0000 0000 0000 0000
000000a0: 0000 0000 0000 0000 0000 0000 0000 0000
000000b0: 0000 0000 0000 0000 0000 0000 0000 0000
000000c0: 0000 0000 0000 0000 0000 0000 0000 0000
000000d0: 0000 0000 0000 0000 0000 0000 0000 0000
000000e0: 0000 0000 0000 0000 0000 0000 0000 0000
000000f0: 0000 0000 0000 0000 0000 0000 0000 0000
00000100: 0000 0000 0000 0000 02fe d642 c7fb 383c
00000110: 6f97 9935 69d2 b83a 5926 6939 ef3b be37
00000120: 86bf da37 cd65 c835 8338 973e 3252 433e
00000130: ae38 7739 1115 5a3e af3c a03b e176 bb47
00000140: 5766 133a f458 253a 86bc f23a 237e 043c
00000150: 7892 c93c ed6c a637 0f07 133d 832d 153d
00000160: 61fa e633 a780 0b35 08c0 bf3b ce50 2b46
00000170: 83bd 2940 a814 4a3e a950 1848 e7a4 8439
00000180: 396f e839 1c41 f838 e140 2039 5a55 713c
00000190: 51b4 e235 eed5 0b2f 8119 4234 de6f de32
000001a0: f282 c531 7d3e 0131 8373 bd2e e217 1e38
000001b0: 9d8f db37 6ace b133 b617 0838 abb3 7f34
000001c0: 0629 9141 9727 6333 e80c 2834 532e 9a34
000001d0: 8a4a 9035 c502 4b36 e9fe 6231 e3b5 a136
000001e0: 6c2e a036 7fcd 1d2f e483 432e 3389 7835
000001f0: 1506 703f 2c6a ca39 6ffe c137 d4e4 a841
00000200: f162 5a33 170a ab33 3f3b 3033 9289 0133
00000210: 0bd7 0141 1436 563a 053a d033 4ed3 df38
00000220: f8ad 9237 9e60 dd35 d10f 0a36 ab83 1d34
00000230: ac9e af3c 0053 6a3c 3408 4c38 93d6 7e3c
00000240: 94f7 1c3a 6f6a e045 fa3a 9538 af2a 5238
00000250: 287c 0f39 8bd1 173a 729c f13a c804 c935
00000260: 0d16 2e3b ad47 303b ecc8 8532 595b 4633
00000270: 81b3 e039 455b 4d44 b6b2 4b3e 7be7 6f3c
00000280: 91ec 3346 7be2 b137 bee8 0338 9f91 5237
00000290: 2191 5c37 1336 203a 8f8d aa33 b293 4c2c
000002a0: 39b2 2132 5b88 fc30 382c 342f 121b 792e
000002b0: 0000 0000 df5d f635 0fc6 9335 f93d ca31
000002c0: 590f b735 ee4b 4233 c3bd 1c3f be81 af31
000002d0: 2027 0d32 6d9f 8332 336e 4933 e385 2b34
000002e0: 429f ba2f ccc8 7134 b0e3 7034 caa1 0d2e
000002f0: caa1 0d2e 8777 8033 2794 923e 84ca 0037
00000300: 53b3 b935 7f00 7a3f cdde 2d31 84ca 6331
00000310: 1fc7 de30 2218 3130 c3c2 a943 634f 073d
00000320: 5738 6536 2041 8a3b 8a83 2b3a b35d 7338
00000330: 330a 9538 2cd3 be36 8a2f 6a3f a097 193f
00000340: 5444 493a d4c9 143f 2115 d23c e66d 5148
00000350: 8861 2d3b cd99 e63a a05b b13b b6d4 c53c
00000360: b4ed a33d 361e 7b38 e7a7 e93d fd43 ec3d
00000370: 79ad c734 36c7 bf35 771e 8b3c a3fd 0647
00000380: a003 0041 0ff4 203f 52e9 ef48 5449 3f3a
00000390: 31fb a93a 8efd dd39 6b4a e139 0000 0000
000003a0: 0000 0000 0000 0000 0000 0000 0000 0000
000003b0: 0000 0000 0000 0000 0000 0000 0000 0000
000003c0: 0000 0000 0000 0000 0000 0000 0000 0000
000003d0: 0000 0000 0000 0000 0000 0000 0000 0000
000003e0: 0000 0000 0000 0000 0000 0000 0000 0000
000003f0: 0000 0000 0000 0000 0000 0000 0000 0000
0.0037913977 3.2724734e-07 9.5291015e-12 3.4850306e-08 6.694923e-09 6.479291e-10 3.138165e-10 5.8825424e-11
9.233511e-06 6.681503e-06 2.2283468e-08 4.0075365e-06 4.426893e-07 1.2348009 6.0773296e-08 4.0907235e-08
3.8501387e-08 2.4507747e-07 9.039221e-07 7.6619616e-10 1.2642398e-06 1.2595576e-06 1.0154984e-12 1.6879399e-11
1.6232569e-07 0.11362895 7.478983e-05 5.45472e-06 5.3791766 1.2574083e-08 2.279947e-08 5.0498983e-09
1.1614492e-08 0.0 0.0 0.0 0.0 0.0 0.0 0.0
0.0 0.0 0.0 0.0 0.0 0.0 0.0 0.0
0.0 0.0 0.0 0.0 0.0 0.0 0.0 0.0
0.0 0.0 0.0 0.0 0.0 0.0 0.0 0.0
0.0 0.0 107.49611 0.011290497 1.1443461e-06 0.0014100793 0.00022234897 2.2677674e-05
2.607681e-05 1.4930789e-06 0.29535303 0.19074324 0.0002357687 0.21297099 0.0048900465 95981.76
0.0005622855 0.00063075055 0.0018519319 0.008086714 0.024605975 1.9839465e-05 0.035895403 0.036420356
1.0755753e-07 5.196875e-07 0.0058517493 10964.201 2.6521919 0.19734442 155970.64 0.00025299864
0.00044333356 0.00011837689 0.00015282958 0.014729822 1.6890791e-06 1.271798e-10 1.8076936e-07 2.5895073e-08
5.7483414e-09 1.8807491e-09 8.615244e-11 3.7692378e-05 2.617371e-05 8.279751e-08 3.244701e-05 2.3814088e-07
18.145031 5.2888563e-08 1.5650915e-07 2.871844e-07 1.075053e-06 3.025097e-06 3.3032228e-09 4.8193483e-06
4.773776e-06 1.4352074e-10 4.445501e-11 9.258685e-07 0.9375928 0.00038607547 2.3125873e-05 21.111732
5.0847067e-08 7.964643e-08 4.1032077e-08 3.0160273e-08 8.115001 0.00081715104 9.6963085e-08 0.00010672827
1.7485567e-05 1.6493902e-06 2.0572809e-06 1.4669665e-07 0.021437965 0.014302015 4.864503e-05 0.015554088
0.000598782 7181.304 7.115859e-05 5.0107654e-05 0.00013683795 0.0005791417 0.0018433465 1.4977059e-06
0.0026563436 0.002689819 1.5574606e-08 4.6183548e-08 0.0004285835 821.4261 0.19892392 0.014642592
11515.142 2.1205507e-05 3.1449592e-05 1.25508805e-05 1.3146812e-05 0.00061115733 7.941991e-08 2.907213e-12
9.4119565e-09 1.8374168e-09 1.6386614e-10 5.664009e-11 0.0 1.8355748e-06 1.1009996e-06 5.8860192e-09
1.3639029e-06 4.5238203e-08 0.61227053 5.1079203e-09 8.216176e-09 1.5322906e-08 4.6899185e-08 1.5974324e-07
3.3946362e-10 2.2517924e-07 2.2434574e-07 3.2203386e-11 3.2203386e-11 5.9822064e-08 0.28628656 7.676546e-06
1.3835764e-06 0.97657007 2.530146e-09 3.3147964e-09 1.620922e-09 6.442652e-10 339.52158 0.033034693
3.4156453e-06 0.0042191893 0.0006542733 5.802298e-05 7.1067734e-05 5.687025e-06 0.9147879 0.59996986
0.0007677723 0.58120465 0.02564484 214455.6 0.0026455838 0.0017593444 0.005412534 0.02414928
0.08004323 5.98712e-05 0.11408978 0.11536405 3.7192856e-07 1.4288587e-06 0.0169823 34557.637
8.000885 0.62872404 491338.56 0.00072969985 0.0012968538 0.00042341318 0.0004297079 0.0
0.0 0.0 0.0 0.0 0.0 0.0 0.0 0.0
0.0 0.0 0.0 0.0 0.0 0.0 0.0 0.0
0.0 0.0 0.0 0.0 0.0 0.0 0.0 0.0

exp_avg f4 [22]
00000000: 0400 0000 0000 0000 103e 943b 0400 0000
00000010: 14c3 e738 0400 0000 2abe 9dbb 0000 0000
00000020: 0400 0000 0000 0000 20ec 5c3b 89c1 68b9
00000030: 16ca 283b e730 2b39 9f47 933b f74f d539
00000040: 9fa0 cc37 0000 0000 0000 0000 0400 0000
00000050: 911e 173b 66dd 14bb
6e-45 0.0 0.004524 6e-45 0.000110512745 6e-45 -0.004813929 0.0
6e-45 0.0 0.0033710077 -0.00022197342 0.0025755218 0.00016326048 0.004494622 0.00040686104
2.439349e-05 0.0 0.0 6e-45 0.002305899 -0.0022714972

exp_avg_sq f4 [22]
00000000: e13b b135 0000 0000 8dd0 1c3d 02e0 ad36
00000010: 493e 393b cdb9 8034 2803 f73d 0000 0000
00000020: e61a 8136 0000 0000 9ba6 3a3c c38b 943a
00000030: 89c3 843c 48cc 2b3d c92a 273d f445 c63c
00000040: 2087 793b 0000 0000 0000 0000 8d9d ad35
00000050: 00fb 7e3c f32d be3b
1.3204955e-06 0.0 0.038284827 5.1818797e-06 0.0028265885 2.3977046e-07 0.12061149 0.0
3.847631e-06 0.0 0.011392261 0.0011333156 0.01620652 0.041942865 0.040812287 0.024203278
0.0038074926 0.0 0.0 1.2935358e-06 0.015562773 0.0058038174

exp_avg f4 [8, 22]
00000000: 0400 0080 0000 0000 199f a2bd 0400 0080
00000010: cf0b 393e 0400 0080 6169 d03d 0000 0000
00000020: 0400 0000 0000 0000 6db7 c1bd 91a9 043e
00000030: 8c70 91bd bc4e 153e 81db af3d 0ecd 9a3d
00000040: 4425 e93d 0000 0000 0000 0000 0400 0080
00000050: 110a d23d a7cd fd3e 0400 0080 0000 0000
00000060: 7824 883f 0400 0080 920c 1c3f 0400 0000
00000070: 6e5e 213f 0000 0000 0400 0080 0000 0000
00000080: b0b3 8a3f b9d3 9c3d c32f c93f 6436 bf3f
00000090: c67b d23e 3953 0740 7560 663f 0000 0000
000000a0: 0000 0000 0400 0080 9d24 e23f 5970 623f
000000b0: 0400 0080 0000 0000 4257 b4bf 0400 0080
000000c0: 2831 0dbf 0400 0080 1f11 dcbe 0000 0000
000000d0: 0400 0080 0000 0000 0413 a5bf 2638 083e
000000e0: 70e6 edbf 2935 b7bf 6947 26bf caf2 1ac0
000000f0: 8e46 82bf 0000 0000 0000 0000 0400 0080
00000100: 59c4 03c0 d6d5 2abf 0400 0080 0000 0000
00000110: 2b56 7ec0 0400 0080 e462 23c0 0400 0080
00000120: ae7f cebf 0000 0000 0400 0080 0000 0000
00000130: 03ab 5fc0 b159 c4bd e904 aac0 f604 94c0
00000140: 9ebe 08c0 ed8f edc0 f1ba 46c0 0000 0000
00000150: 0000 0000 0400 0080 128e cbc0 1a81 58c0
00000160: 0400 0080 0000 0000 af8d cb3f 0400 0080
00000170: 924b 233f 0400 0080 8e2b 0b3f 0000 0000
00000180: 0400 0080 0000 0000 0c52 b53f c457 bbbd
00000190: 7f55 0d40 eacd cd3f 6f91 3f3f f5ae 3340
000001a0: dadd 993f 0000 0000 0000 0000 0400 0080
000001b0: d174 1640 be4a 373f 0400 0080 0000 0000
000001c0: 2f2e 10c0 0400 0080 596c 8ebf 0400 0080
000001d0: d6f2 4cbf 0000 0000 0400 0080 0000 0000
000001e0: 7849 03c0 a43d 953d 6e51 40c0 8baf 1ec0
000001f0: 16a0 90bf fb92 81c0 7d70 ddbf 0000 0000
00000200: 0000 0000 0400 0080 e0c4 5dc0 e268 c1bf
00000210: 0400 0080 0000 0000 2bea 53bd 0400 0080
00000220: 6d92 933e 0400 0080 18cd bd3e 0000 0000
00000230: 0400 0080 0000 0000 a758 f93c 4629 683e
00000240: c9f7 4a3e fd50 f73e 87cf 6f3d cba9 d13e
00000250: 8f04 a23e 0000 0000 0000 0000 0400 0080
00000260: 1dcc a43e 2d28 353f 0400 0000 0000 0000
00000270: b133 15c0 0400 0000 acae a8bf 0400 0000
00000280: 2471 90bf 0000 0000 0400 0000 0000 0000
00000290: 99db 04c0 7bd7 bcbd cd41 55c0 88bc 34c0
000002a0: f046 8cbf 4df4 8fc0 a8c5 f0bf 0000 0000
000002b0: 0000 0000 0400 0000 7e52 6ec0 717f dabf
-6e-45 0.0 -0.07940502 -6e-45 0.18070911 -6e-45 0.101763494 0.0
6e-45 0.0 -0.09458814 0.1295531 -0.07101545 0.14580816 0.08586789 0.07558642
0.11384061 0.0 0.0 -6e-45 0.10255826 0.49570963 -6e-45 0.0
1.0636129 -6e-45 0.6095668 6e-45 0.63034713 0.0 -6e-45 0.0
1.0836086 0.076575704 1.5717701 1.4938474 0.41110057 2.1144545 0.8999093 0.0
0.0 -6e-45 1.7667423 0.8845268 -6e-45 0.0 -1.4089129 -6e-45
-0.5515313 -6e-45 -0.42981812 0.0 -6e-45 0.0 -1.2896428 0.13302669
-1.8585949 -1.4313098 -0.64952713 -2.4210687 -1.0177782 0.0 0.0 -6e-45
-2.058859 -0.6673254 -6e-45 0.0 -3.9740093 -6e-45 -2.5529108 -6e-45
-1.6132715 0.0 -6e-45 0.0 -3.4948127 -0.0958742 -5.3130994 -4.6256056
-2.1366343 -7.423819 -3.10516 0.0 0.0 -6e-45 -6.3610926 -3.3828797
-6e-45 0.0 1.5902613 -6e-45 0.63787186 -6e-45 0.54363334 0.0
-6e-45 0.0 1.4165664 -0.09147599 2.2083433 1.6078465 0.7483129 2.8075535
1.2020829 0.0 0.0 -6e-45 2.35088 0.7159842 -6e-45 0.0
-2.2528188 -6e-45 -1.1126815 -6e-45 -0.8005804 0.0 -6e-45 0.0
-2.0513592 0.07287148 -3.00497 -2.4794643 -1.1298854 -4.049192 -1.7299954 0.0
0.0 -6e-45 -3.4651413 -1.5110133 -6e-45 0.0 -0.05173699 -6e-45
0.28822652 -6e-45 0.37070537 0.0 -6e-45 0.0 0.03043778 0.22671995
0.19821085 0.48303977 0.058547523 0.40949854 0.31644103 0.0 0.0 -6e-45
0.32186976 0.7076443 6e-45 0.0 -2.33128 6e-45 -1.3178306 6e-45
-1.1284528 0.0 6e-45 0.0 -2.0759032 -0.09220787 -3.3321412 -2.824007
-1.0959148 -4.498572 -1.881032 0.0 0.0 6e-45 -3.723785 -1.7070142

exp_avg_sq f4 [8, 22]
00000000: 9e2f ad3d 0000 0000 ada5 7b45 2e93 c03d
00000010: b9e5 2d45 1a6a 5d3a 396b a544 0000 0000
00000020: f97b 963c 0000 0000 6c91 4845 aca1 da42
00000030: c58b 0246 e18e ef45 51d8 9044 91c7 8746
00000040: 9521 4545 0000 0000 0000 0000 41ed 323b
00000050: 570c 4246 ca96 a845 a53e f63b 0000 0000
00000060: 6cdf 7245 7ffa ab3b 72de 1945 1c61 6c38
00000070: f241 a044 0000 0000 03b8 183c 0000 0000
00000080: 615b 4245 e544 8c42 362a fe45 693f e745
00000090: 08d2 8844 f989 8346 81f8 3f45 0000 0000
000000a0: 0000 0000 2cde 8239 6811 3b46 59ea 9545
000000b0: dfe2 d73c 0000 0000 8bb4 b245 1c43 893c
000000c0: 5d9b 9c45 d64b c039 41bf 0645 0000 0000
000000d0: 63c9 963d 0000 0000 8497 8945 5ede 5043
000000e0: 35cd 3746 c7d8 3b46 3ea6 e344 4c4f cc46
000000f0: 1c04 8e45 0000 0000 0000 0000 5dbd 403b
00000100: 7205 9346 6df1 1846 de30 3d3d 0000 0000
00000110: 7e9c 8d46 fa7f 2c3d 2221 6346 acac 943a
00000120: 7793 ca45 0000 0000 4003 df3c 0000 0000
00000130: 8851 5c46 0a70 0744 61a8 1147 3470 0f47
00000140: bf55 ae45 d642 9e47 6ffa 5f46 0000 0000
00000150: 0000 0000 1364 983b 397b 6347 5139 dc46
00000160: cbc4 463c 0000 0000 0a64 bc45 251a fd3b
00000170: 4fb5 8645 7f2e 1d39 de27 0145 0000 0000
00000180: 4b29 e83c 0000 0000 7f25 9445 859c 0643
00000190: d2d5 4246 c6f9 3846 95ea de44 1a2f cf46
000001a0: 6b7e 9445 0000 0000 0000 0000 762d 103b
000001b0: e436 9446 2e80 0246 c164 293b 0000 0000
000001c0: e2b3 1e46 cfdb a83a 41bb 0a46 bcdd bd38
000001d0: 1e4e 6c45 0000 0000 fbd8 ad3c 0000 0000
000001e0: d63f f345 fc54 af43 510f a246 1bce a546
000001f0: eb75 4b45 098e 3447 a855 fa45 0000 0000
00000200: 0000 0000 6769 0d3a 3a38 0247 0886 8646
00000210: bcdd 473e 0000 0000 3c40 4646 872b 373e
00000220: 396e 0d46 93a8 1c3b 2254 8545 0000 0000
00000230: c179 8a3c 0000 0000 45ac 1b46 83f3 9643
00000240: e978 cc46 cae7 c046 4dff 6a45 e977 5947
00000250: 301c 1a46 0000 0000 0000 0000 5308 8b3b
00000260: 2978 1b47 3c0d 8946 bbc5 993d 0000 0000
00000270: 103b 1c46 2c70 363d 26ec ca45 1b53 6c3a
00000280: 60d8 4b45 0000 0000 e8e0 443e 0000 0000
00000290: 768c f745 61f9 3343 e018 a246 a92f 9546
000002a0: 5db0 3345 101a 2a47 43eb f245 0000 0000
000002b0: 0000 0000 3a8b c53b 5d72 f246 bc44 4446
0.08456348 0.0 4026.3547 0.09403072 2782.3577 0.00084462913 1323.3507 0.0
0.018369662 0.0 3209.0889 109.315765 8354.942 7665.86 1158.7599 17379.783
3154.0989 0.0 0.0 0.002730206 12419.085 5394.8486 0.007514792 0.0
3885.9639 0.0052483673 2461.9028 5.6357225e-05 1282.0608 0.0 0.009321216 0.0
3109.7112 70.13456 8133.2764 7399.9263 1094.5635 16836.986 3071.5315 0.0
0.0 0.00024961063 11972.352 4797.2935 0.026353298 0.0 5718.568 0.016755633
5011.4204 0.00036677596 2155.9534 0.0 0.0736263 0.0 4402.9395 208.86862
11763.302 12022.194 1821.1951 26151.648 4544.5137 0.0 0.0 0.0029409744
18818.723 9788.356 0.04618918 0.0 18126.246 0.042114235 14536.283 0.0011342964
6482.433 0.0 0.02722323 0.0 14100.383 541.7506 37288.38 36720.203
5578.7183 81029.67 14334.608 0.0 0.0 0.0046506017 58235.223 28188.658
0.01213188 0.0 6028.505 0.007724064 4310.6636 0.00014990008 2066.4917 0.0
0.028340003 0.0 4740.687 134.6114 12469.455 11838.443 1783.3307 26519.55
4751.8022 0.0 0.0 0.0021999753 18971.445 8352.045 0.0025847408 0.0
10156.971 0.0012882891 8878.813 9.0535235e-05 3780.8823 0.0 0.021221628 0.0
7783.9795 350.66394 20743.658 21223.053 3255.3699 46222.035 8010.707 0.0
0.0 0.00053944293 33336.227 17219.016 0.19518179 0.0 12688.059 0.17887698
9051.556 0.002390419 4266.5166 0.0 0.01690376 0.0 9963.067 301.90244
26172.455 24691.895 3759.9563 55671.91 9863.047 0.0 0.0 0.0042429357
39800.16 17542.617 0.07508417 0.0 9998.766 0.04454057 6493.5186 0.0009015069
3261.5234 0.0 0.1922642 0.0 7921.5576 179.97414 20748.438 19095.83
2875.0227 43546.062 7773.4077 0.0 0.0 0.00602856 31033.182 12561.184

exp_avg f4 [8]
00000000: b8aa b839 ef99 0f3b bd66 0abb 2287 efbb
00000010: b9ae 1f3b cb95 77bb 9e48 623a 7904 8fbb
0.0003522241 0.002191182 -0.0021118366 -0.0073098103 0.0024365617 -0.0037778493 0.00086320366 -0.004364547

exp_avg_sq f4 [8]
00000000: d8aa 9f3c 44b6 993c 9dd1 003d c014 c23d
00000010: ee02 f83c 8fac 623d 225a 823d 789a 483d
0.019490644 0.018763669 0.031449903 0.09476614 0.030274834 0.055340346 0.06364848 0.048975438

exp_avg f4 [22, 8]
00000000: 7771 743e 4486 3c3f ab49 853e ffdf 91bd
00000010: 184e 0d3f adf2 663f 9718 3c3f e492 8abf
00000020: 2403 2abf ad74 31bf af0b 833d 47cb ea3e
00000030: 1c9f b6be 38ce d7be 5b24 4cbf b1e3 353f
00000040: 0000 0000 0000 0000 0000 0000 0000 0000
00000050: 0000 0000 0000 0000 0000 0000 0000 0000
00000060: 1c93 a33f 2ead db3f 976b 2d3e c5e6 64bf
00000070: b2a8 803f 972b 9b3f b30a e73f 6c72 01c0
00000080: 6b54 92bd 43cd 873e e115 6b3e 5f7c 273e
00000090: 3136 7b3e a888 bc3e 55f0 5c3e a261 d0be
000000a0: 0400 0080 0400 0080 0400 0000 0400 0000
000000b0: 0400 0080 0400 0080 0400 0080 0400 0000
000000c0: 0bbd 843f c8b5 7c3f ef28 90bb ff9f f9be
000000d0: 7165 bc3e d6ee 433f 8e4e 9d3f af54 6abf
000000e0: 4634 de3e d9a1 153f fa5c 243d af26 9cbe
000000f0: fea7 c23e 02ec b73e d49b 1a3f d94a 31bf
00000100: 34ab 5dbf 8ed1 bdbf f5dd a6be 1184 fe3e
00000110: 76e3 84bf bbf4 93bf 5b1f c0bf 3364 f43f
00000120: 42ca bbbe e110 9fbf 99e8 dabe 0da8 823e
00000130: 7c62 83bf 4f28 9cbf c6d7 90bf 5bcc e83f
00000140: 9363 43be 290a 07be a90a ec3d cfe1 923e
00000150: faba dbbd 0378 c23d fa04 05be 31f7 0f3e
00000160: 6c81 ac3f 13b5 cb3f 96e3 543e 5650 45bf
00000170: fc7d 6b3f 95a7 7d3f 4bdd df3f 86a1 e8bf
00000180: 0400 0080 0400 0000 0400 0000 0400 0000
00000190: 0400 0000 0400 0000 0400 0000 0400 0080
000001a0: ea79 1ec0 8541 5ac0 db21 d3be c2ac c63f
000001b0: e714 08c0 e013 14c0 6ef1 64c0 1369 8140
000001c0: 0dad a9b3 86fa 6833 8cf8 9033 fbf6 a632
000001d0: eb3f cc33 969e 6d33 f8ad 4630 bc79 12b4
000001e0: 5a2d 793f a949 0540 3920 0d3f f7d5 14bf
000001f0: a76f c53f b387 da3f 9d13 0040 e0a4 2ec0
00000200: 0400 0080 0400 0000 0400 0080 0400 0080
00000210: 0400 0000 0400 0000 0400 0080 0400 0080
00000220: 861a 03c0 8d79 40c0 2773 d4be 8c97 ad3f
00000230: de45 febf 23b2 fbbf 8828 44c0 04c4 6740
00000240: bdb7 603f 366d 2d40 e2a4 6a3f d46e 12bf
00000250: 5fd2 0b40 f1e5 1740 c65e 1c40 badd 72c0
00000260: 889c dc3d 7ecd 0c3e f888 2abc b2c8 c83b
00000270: f246 e13d 1ebb cb3c 4628 153e 5442 cebd
00000280: e2b4 b93f 64bf d13f c3ac d03d 53b0 57bf
00000290: a4cb 6b3f 2eb5 8e3f c5a9 ed3f fa93 efbf
000002a0: f140 e53e 7345 9f3f 53b8 bd3e 2da7 9cbe
000002b0: f0e3 7b3f 6e66 843f 9bf7 8f3f 1f5c d7bf
0.23871408 0.73642373 0.26032767 -0.07122802 0.55197287 0.90214044 0.7347502 -1.0826077
-0.6641104 -0.6931866 0.06398713 0.45858213 -0.35668266 -0.4214952 -0.79742974 0.71050555
0.0 0.0 0.0 0.0 0.0 0.0 0.0 0.0
1.2779269 1.7162225 0.16935574 -0.89414626 1.0051482 1.2122678 1.805014 -2.0226088
-0.07145008 0.2652379 0.22957565 0.16356038 0.24532391 0.3682301 0.21576054 -0.40699488
-6e-45 -6e-45 6e-45 6e-45 -6e-45 -6e-45 -6e-45 6e-45
1.0370191 0.98714876 -0.004399411 -0.4875488 0.36796144 0.7653631 1.2289598 -0.91535467
0.43399256 0.58450085 0.04012773 -0.30498263 0.38018793 0.35922247 0.60394025 -0.69254833
-0.8658936 -1.4829576 -0.32591215 0.49710134 -1.0381916 -1.1559061 -1.5009569 1.9093078
-0.36677748 -1.2427026 -0.42755583 0.25518838 -1.026443 -1.2199801 -1.1315849 1.8187364
-0.19080953 -0.1318747 0.11525471 0.28687903 -0.10729022 0.09495547 -0.1299018 0.1405914
1.3476996 1.5914634 0.20789942 -0.7707571 0.9198911 0.99083835 1.7489408 -1.8174293
-6e-45 6e-45 6e-45 6e-45 6e-45 6e-45 6e-45 -6e-45
-2.476191 -3.410249 -0.41236767 1.5521472 -2.1262758 -2.313713 -3.5772357 4.0440764
-7.9011535e-08 5.424456e-08 6.750733e-08 1.9437257e-08 9.511117e-08 5.5325096e-08 7.2279205e-10 -1.3641596e-07
0.97334826 2.0826209 0.5512729 -0.58138984 1.5424699 1.7072662 2.001197 -2.7288132
-6e-45 6e-45 -6e-45 -6e-45 6e-45 6e-45 -6e-45 -6e-45
-2.0484939 -3.0074189 -0.41494104 1.3561873 -1.9865072 -1.9663738 -3.0649738 3.6213388
0.8778036 2.7097907 0.9165784 -0.5720036 2.184715 2.3734095 2.4432845 -3.794783
0.107720435 0.13750264 -0.010408632 0.0061274404 0.1099986 0.024869498 0.14566144 -0.10071245
1.4508326 1.6386533 0.10189202 -0.84253424 0.92107606 1.1149042 1.8567435 -1.8717034
0.4477611 1.2443069 0.3705469 -0.30596295 0.9839468 1.0343759 1.1247438 -1.6824988
